Model: "sequential_5"
_________________________________________________________________
 Layer (type)                Output Shape              Param #
=================================================================
 bidirectional_3 (Bidirectio  (None, 32, 400)          342400
 nal)
 dropout_11 (Dropout)        (None, 32, 400)           0
 bidirectional_4 (Bidirectio  (None, 200)              401600
 nal)
 dropout_12 (Dropout)        (None, 200)               0
 dense_15 (Dense)            (None, 128)               25728
 dropout_13 (Dropout)        (None, 128)               0
 dense_16 (Dense)            (None, 64)                8256
 dense_17 (Dense)            (None, 6)                 390
=================================================================
Total params: 778,374
Trainable params: 778,374
Non-trainable params: 0
_________________________________________________________________
None
Epoch 1/10




















































































































































































…
