Model: "sequential_6"
_________________________________________________________________
 Layer (type)                Output Shape              Param #
=================================================================
 conv1d_2 (Conv1D)           (None, 20, 128)           25472
 conv1d_3 (Conv1D)           (None, 10, 128)           180352
 max_pooling1d (MaxPooling1D  (None, 3, 128)           0
 )
 bidirectional_2 (Bidirectio  (None, 3, 256)           264192
 nal)
 bidirectional_3 (Bidirectio  (None, 256)              395264
 nal)
 dropout_3 (Dropout)         (None, 256)               0
 dense_9 (Dense)             (None, 6)                 1542
=================================================================
Total params: 866,822
Trainable params: 866,822
Non-trainable params: 0
_________________________________________________________________
Epoch 1/100


350/350 [==============================] - 15s 18ms/step - loss: 0.1142 - _timestamp: 1648149769.0000 - _runtime: 41.0000 - val_loss: 0.0556
Epoch 2/100

350/350 [==============================] - 5s 15ms/step - loss: 0.0555 - _timestamp: 1648149775.1549 - _runtime: 47.1549 - val_loss: 0.0474
…
