Model: "sequential_4"
_________________________________________________________________
 Layer (type)                Output Shape              Param #
=================================================================
 bidirectional (Bidirectiona  (None, 30, 256)          151552
 l)
 bidirectional_1 (Bidirectio  (None, 256)              395264
 nal)
 dropout_2 (Dropout)         (None, 256)               0
 dense_6 (Dense)             (None, 64)                16448
 dense_7 (Dense)             (None, 32)                2080
 dense_8 (Dense)             (None, 6)                 198
=================================================================
Total params: 565,542
Trainable params: 565,542
Non-trainable params: 0
_________________________________________________________________
Epoch 1/100








350/350 [==============================] - 20s 50ms/step - loss: 0.2033 - _timestamp: 1648145238.2394 - _runtime: 41.2394 - val_loss: 0.1408
Epoch 2/100







350/350 [==============================] - 17s 48ms/step - loss: 0.1459 - _timestamp: 1648145255.7183 - _runtime: 58.7183 - val_loss: 0.1336
…
