…
18982/18982 [==============================] - 363s 19ms/step - loss: 817904.6875 - accuracy: 0.2650 - _timestamp: 1648056978.1543 - _runtime: 3587.1543 - val_loss: 411815.2500 - val_accuracy: 0.1605
Epoch 11/100

































































































































































18979/18982 [============================>.] - ETA: 0s - loss: 817966.3750 - accuracy: 0.2726 - _timestamp: 1648057341.4146 - _runtime: 3950.4149Model: "sequential"
_________________________________________________________________
 Layer (type)                Output Shape              Param #
=================================================================
 bidirectional (Bidirectiona  (None, 32, 256)          145408
 l)
 dropout (Dropout)           (None, 32, 256)           0
 bidirectional_1 (Bidirectio  (None, 256)              395264
 nal)
 dropout_1 (Dropout)         (None, 256)               0
 dense (Dense)               (None, 128)               32896
 dropout_2 (Dropout)         (None, 128)               0
 dense_1 (Dense)             (None, 64)                8256
 dense_2 (Dense)             (None, 6)                 390
=================================================================
Total params: 582,214
Trainable params: 582,214
Non-trainable params: 0
_________________________________________________________________
None