Model: "sequential_3"
_________________________________________________________________
 Layer (type)                Output Shape              Param #
=================================================================
 lstm_6 (LSTM)               (None, 30, 200)           175200
 lstm_7 (LSTM)               (None, 200)               320800
 dropout_1 (Dropout)         (None, 200)               0
 dense_3 (Dense)             (None, 200)               40200
 dense_4 (Dense)             (None, 100)               20100
 dense_5 (Dense)             (None, 6)                 606
=================================================================
Total params: 556,906
Trainable params: 556,906
Non-trainable params: 0
_________________________________________________________________
Epoch 1/100



350/350 [==============================] - 15s 21ms/step - loss: 0.3014 - _timestamp: 1648143640.8451 - _runtime: 173.8451 - val_loss: 0.2540
Epoch 2/100


350/350 [==============================] - 6s 18ms/step - loss: 0.2539 - _timestamp: 1648143648.1408 - _runtime: 181.1408 - val_loss: 0.2490
…
