Model: "sequential_2"
_________________________________________________________________
 Layer (type)                Output Shape              Param #
=================================================================
 lstm_4 (LSTM)               (None, 30, 200)           175200
 lstm_5 (LSTM)               (None, 200)               320800
 dropout (Dropout)           (None, 200)               0
 dense (Dense)               (None, 200)               40200
 dense_1 (Dense)             (None, 100)               20100
 dense_2 (Dense)             (None, 6)                 606
=================================================================
Total params: 556,906
Trainable params: 556,906
Non-trainable params: 0
_________________________________________________________________